…
Maximum reward: 1700896.9446069584
Time taken: 1.2835501888725493 hours
Training steps: 320104
Steps per second: 69.27487413318974


***** Config:
Track name: g-track-2
Total episodes: 1000
Episodes per validation: 20
Buffer size: 100000
Batch size: 100


***** Hyperparameters:
Actor learning rate: 0.0001
Critic learning rate: 0.001
Tau: 0.001
Sigma: 0.3


***** Actor:Model: "model_1"
_________________________________________________________________
Layer (type)                 Output Shape              Param #
=================================================================
input_1 (InputLayer)         (None, 28)                0
_________________________________________________________________
dense_1 (Dense)              (None, 400)               11600
_________________________________________________________________
gaussian_noise_1 (GaussianNo (None, 400)               0
_________________________________________________________________
dense_2 (Dense)              (None, 300)               120300
_________________________________________________________________
gaussian_noise_2 (GaussianNo (None, 300)               0
_________________________________________________________________
dense_3 (Dense)              (None, 2)                 602
=================================================================
Total params: 132,502
Trainable params: 132,502
Non-trainable params: 0
_________________________________________________________________


***** Actor Target:Model: "model_2"
_________________________________________________________________
Layer (type)                 Output Shape              Param #
=================================================================
input_2 (InputLayer)         (None, 28)                0
_________________________________________________________________
dense_4 (Dense)              (None, 400)               11600
_________________________________________________________________
gaussian_noise_3 (GaussianNo (None, 400)               0
_________________________________________________________________
dense_5 (Dense)              (None, 300)               120300
_________________________________________________________________
gaussian_noise_4 (GaussianNo (None, 300)               0
_________________________________________________________________
dense_6 (Dense)              (None, 2)                 602
=================================================================
Total params: 132,502
Trainable params: 132,502
Non-trainable params: 0
_________________________________________________________________


***** Critic:Model: "model_3"
__________________________________________________________________________________________________
Layer (type)                    Output Shape         Param #     Connected to
==================================================================================================
input_3 (InputLayer)            (None, 28)           0
__________________________________________________________________________________________________
input_4 (InputLayer)            (None, 2)            0
__________________________________________________________________________________________________
concatenate_1 (Concatenate)     (None, 30)           0           input_3[0][0]
                                                                 input_4[0][0]
__________________________________________________________________________________________________
dense_7 (Dense)                 (None, 400)          12400       concatenate_1[0][0]
__________________________________________________________________________________________________
dense_8 (Dense)                 (None, 300)          120300      dense_7[0][0]
__________________________________________________________________________________________________
dense_9 (Dense)                 (None, 1)            301         dense_8[0][0]
==================================================================================================
Total params: 133,001
Trainable params: 133,001
Non-trainable params: 0
__________________________________________________________________________________________________


***** Critic Target:Model: "model_4"
__________________________________________________________________________________________________
Layer (type)                    Output Shape         Param #     Connected to
==================================================================================================
input_5 (InputLayer)            (None, 28)           0
__________________________________________________________________________________________________
input_6 (InputLayer)            (None, 2)            0
__________________________________________________________________________________________________
concatenate_2 (Concatenate)     (None, 30)           0           input_5[0][0]
                                                                 input_6[0][0]
__________________________________________________________________________________________________
dense_10 (Dense)                (None, 400)          12400       concatenate_2[0][0]
__________________________________________________________________________________________________
dense_11 (Dense)                (None, 300)          120300      dense_10[0][0]
__________________________________________________________________________________________________
dense_12 (Dense)                (None, 1)            301         dense_11[0][0]
==================================================================================================
Total params: 133,001
Trainable params: 133,001
Non-trainable params: 0
__________________________________________________________________________________________________
