…
lts:
Average reward: 27019.903661891763
Maximum reward: 240166.162528499
Time taken: 4.936864156590568 hours
Training steps: 858837
Steps per second: 48.32335380645526


***** Config:
Total episodes: 10000
Episodes per validation: 50
Buffer size: 100000.0
Batch size: 250


***** Hyperparameters:
Learning rate: 0.0001
Tau: 0.0001
Sigma: 0.2


***** Actor:Model: "model_5"
_________________________________________________________________
Layer (type)                 Output Shape              Param #   
=================================================================
input_7 (InputLayer)         (None, 28)                0         
_________________________________________________________________
dense_13 (Dense)             (None, 400)               11600     
_________________________________________________________________
gaussian_noise_5 (GaussianNo (None, 400)               0         
_________________________________________________________________
dense_14 (Dense)             (None, 300)               120300    
_________________________________________________________________
gaussian_noise_6 (GaussianNo (None, 300)               0         
_________________________________________________________________
dense_15 (Dense)             (None, 2)                 602       
=================================================================
Total params: 132,502
Trainable params: 132,502
Non-trainable params: 0
_________________________________________________________________


***** Critic:Model: "model_7"
__________________________________________________________________________________________________
Layer (type)                    Output Shape         Param #     Connected to                     
==================================================================================================
input_9 (InputLayer)            (None, 28)           0                                            
__________________________________________________________________________________________________
input_10 (InputLayer)           (None, 2)            0                                            
__________________________________________________________________________________________________
concatenate_3 (Concatenate)     (None, 30)           0           input_9[0][0]                    
                                                                 input_10[0][0]                   
__________________________________________________________________________________________________
dense_19 (Dense)                (None, 400)          12400       concatenate_3[0][0]              
__________________________________________________________________________________________________
dense_20 (Dense)                (None, 300)          120300      dense_19[0][0]                   
__________________________________________________________________________________________________
dense_21 (Dense)                (None, 1)            301         dense_20[0][0]                   
==================================================================================================
Total params: 133,001
Trainable params: 133,001
Non-trainable params: 0
__________________________________________________________________________________________________