…

Average reward: 40478.98466101515
Maximum reward: 987867.727329892
Time taken: 26095.962441682816 seconds
Training steps: 560488
Steps per second: 21.477958563610525


***** Config:
Total episodes: 5000.0
Episodes per validation: 20
Buffer size: 100000.0
Batch size: 250


***** Hyperparameters:
Learning rate: 0.0001
Tau: 0.0001
Sigma: 0.3


***** Actor:Model: "model_1"
_________________________________________________________________
Layer (type)                 Output Shape              Param #   
=================================================================
input_1 (InputLayer)         (None, 28)                0         
_________________________________________________________________
dense_1 (Dense)              (None, 400)               11600     
_________________________________________________________________
gaussian_noise_1 (GaussianNo (None, 400)               0         
_________________________________________________________________
dense_2 (Dense)              (None, 300)               120300    
_________________________________________________________________
gaussian_noise_2 (GaussianNo (None, 300)               0         
_________________________________________________________________
dense_3 (Dense)              (None, 2)                 602       
=================================================================
Total params: 132,502
Trainable params: 132,502
Non-trainable params: 0
_________________________________________________________________


***** Critic:Model: "model_3"
__________________________________________________________________________________________________
Layer (type)                    Output Shape         Param #     Connected to                     
==================================================================================================
input_3 (InputLayer)            (None, 28)           0                                            
__________________________________________________________________________________________________
input_4 (InputLayer)            (None, 2)            0                                            
__________________________________________________________________________________________________
concatenate_1 (Concatenate)     (None, 30)           0           input_3[0][0]                    
                                                                 input_4[0][0]                    
__________________________________________________________________________________________________
dense_7 (Dense)                 (None, 400)          12400       concatenate_1[0][0]              
__________________________________________________________________________________________________
dense_8 (Dense)                 (None, 300)          120300      dense_7[0][0]                    
__________________________________________________________________________________________________
dense_9 (Dense)                 (None, 1)            301         dense_8[0][0]                    
==================================================================================================
Total params: 133,001
Trainable params: 133,001
Non-trainable params: 0
__________________________________________________________________________________________________